models/checkpoint.pth (torch_old, 127925 bytes, 11 tensors)

fc1.weight f4 [64, 37]
00000000: fab7 6dbb 8874 d93c 1021 393e 4272 67bd
00000010: 0b99 a03d 45fd aabd 3dc9 2b3d d1fa dbbe
00000020: 4e9a 9dbd eede 903e 9e18 2bbe 5ab9 8ebd
00000030: e155 d9bd 8b74 79bd 4636 1b3e f179 373c
00000040: f5c1 77be 8379 b0be 6a18 923d d12d 0c3e
00000050: 988c e0bd 5ec3 89be d8c6 d63d 13be 8cbe
00000060: 74b3 35be 2e2d 8c3d 3b3d b23d 990d 743c
00000070: 4080 80be e389 c73e 7703 81bc 65a6 f0be
00000080: ee86 a83e f577 1cbe 83b8 8c3e b83e 873c
00000090: 3603 ddbd d508 453e 5c03 a93d 4ff2 97bd
000000a0: 52c8 22bf 902a 3c3e 40a9 3a3e b895 a1be
000000b0: ce7e 883e c51a adbc b39b 4cbe 21b7 213e
000000c0: 07d3 a0be 1361 bd3c 1d78 12be 7d8e 59be
000000d0: 10d4 fbbe bde8 eebc 4576 483c a19c be3d
000000e0: 41f1 8dbd c046 aebd e5ca 6fbe 4c0e 9e3d
000000f0: dd9b 1dbd 6b9d 803e 685f 2bbe 1593 253d
00000100: 4d26 b63d 3f34 bbbc 808b 04be cd2f 493e
00000110: 0b60 15be 4e7e 683e bdd9 06bf d007 bd3e
00000120: 21b2 b9bd 65e2 60be 9ada d93e 021a 87bd
00000130: e1db 4abd d0c1 fd3d 9efd 0dbe b3fc f3bd
00000140: a203 9f3e 7173 7b3e dcd4 2cbe 84ad 9139
00000150: 226c 5a3c 975f a9be 43a6 f73d 35e1 a0bc
00000160: 448b 36bd e022 c6bd f279 15be 124a 5a3c
00000170: 9412 1e3e c22e d4be 1a24 663e a4ea fcbd
00000180: 3f42 3fbe 10de cc3d ba71 3c3e 72d7 4dbe
00000190: 9894 3dbd 272e 543e 62e3 383e 0a4b 68be
000001a0: 064f 71be 2369 0d3e f7f8 ba3d 6a57 79bd
000001b0: b1fd 0cbf 181a 75be e079 ddbd b74b 9ebc
000001c0: 30ab 88be 82bf a0bd 0e1b bcbd 3268 523e
000001d0: 9f11 dabe f0c9 1e3e 2706 49be 4fa2 f23e
000001e0: 9a88 a0be da3f 983d 414a 923e 866d 063e
000001f0: f4d7 25be 3dab 8abe dd63 83bd 9b34 803d
00000200: cc04 f5bd e712 b7bd cecf a63d 13a9 89bc
00000210: 9acf ae3d a8f7 513d 6543 84be b8f9 ed3d
00000220: 64d4 f23e 3c85 abbe 6bd8 93be f4e4 aebd
00000230: ed66 1bbf e7d6 353e f89b 853d 43e9 54be
00000240: 564d 163e 1644 bc3d 4f0e dc3d c31e 0e3d
00000250: f1cf d7bd 9ac3 363e 6457 5abd b0ad af3b
00000260: e4aa 67be 2d9d 7b3d 43bf 3a3d 8633 db3e
00000270: 0d64 df3e 6989 6abd 8bf8 1d3d bf3a f13d
00000280: c83c 10be eb44 57bd 661c 40be a9c0 4a3e
00000290: ac51 463e 9c2c 6c3e 2bc6 163e 004c 98be
000002a0: 11f4 8b3e 4228 083d e9fa a1bd 04b4 b5be
000002b0: 10ea c9bf 5407 b1bd aed2 0d3e 7d06 57bd
000002c0: 67cc 41bd 4d30 8cbe 550c 40be eb4d 0b3d
000002d0: 6e2d e7bd 8571 1abe 387f 9ebe 8ca8 39bd
000002e0: ca20 3abc cf6c 1cbf 36ae 7f3e 7eff 8b3e
000002f0: a571 c3bd 5305 13bd cfe1 973d 36da 3d3e
00000300: 0d4d d6bd 7233 60be d2f0 aebd d495 16be
00000310: 089c c93b 1606 d0bd 1f98 ac3d 5aa6 503e
00000320: 1e0a c1be 44ca 303e 6cb3 0fbe 2ec2 af3d
00000330: d8d6 2abe 28d9 883d 479a 58bc bbd9 acbd
00000340: be94 c23d 3541 ffbd 0413 dfbc 83b2 16be
00000350: 7c5c ac3e 3372 afbd 9c0b 1cbe ea62 653e
00000360: b171 25be 7b09 7c3e 1f05 a0bd a83d a2be
00000370: 99db 203e 68ca 00be 6ed2 2f3e c5d5 9cbd
00000380: 983c 29bd 3181 3c3c a56a 263e 3d3c 0a3e
00000390: 96ef 903e c9f9 ea3d 3723 cdbd 0b8d 23bd
000003a0: af9f cebc 5c60 393e c24c d53d bc93 333c
000003b0: 25da 1f3c ab16 843e 379b a4bd e9f4 0ebe
000003c0: 0479 8b3d af3b 233d c816 85bd a4d8 263e
000003d0: 1a61 bf3b 1177 0d3e 7d6c 1a3e 62ad b43e
000003e0: f85e e7bd b022 dabe 0a70 cfbe fab8 6fbf
000003f0: ff7b 3ebe d8dc 0abe ba54 8cbd ba4c a33d
-0.0036272989 0.026544824 0.18079019 -0.05650545 0.07841691 -0.083490886 0.041939963 -0.42964795
-0.07695447 0.28295082 -0.1670861 -0.06968947 -0.10612083 -0.06090216 0.15157422 0.011198507
-0.24195082 -0.34467706 0.07133563 0.13689353 -0.10964316 -0.26906866 0.10487145 -0.27488765
-0.17744237 0.06844555 0.08703085 0.01489582 -0.25097847 0.38972387 -0.015748722 -0.4700195
0.32915443 -0.15280135 0.2748452 0.016509399 -0.10791628 0.1924165 0.08252594 -0.074192636
-0.63586915 0.18375611 0.18228626 -0.3155954 0.26659244 -0.021130929 -0.1998127 0.15792514
-0.31411 0.023117578 -0.14303632 -0.21245761 -0.49185228 -0.029163713 0.012235229 0.09307218
-0.06930781 -0.08509588 -0.23417242 0.07717571 -0.03847872 0.251201 -0.16735613 0.04042347
0.08894024 -0.022852061 -0.1294384 0.19647141 -0.14587419 0.22704431 -0.5267599 0.36920023
-0.090671785 -0.21961363 0.42549592 -0.065967575 -0.0495261 0.123904824 -0.13866279 -0.11913433
0.3105746 0.24555756 -0.16878074 0.00027785834 0.013331445 -0.33080742 0.12092259 -0.019638637
-0.044566408 -0.09674621 -0.145973 0.013323324 0.15436774 -0.41441923 0.22474709 -0.12349442
-0.18677615 0.100032926 0.18402758 -0.20101717 -0.04628429 0.2072073 0.1805549 -0.22684875
-0.23565301 0.13809638 0.091295175 -0.06087438 -0.550746 -0.23935735 -0.108142614 -0.019323213
-0.26693106 -0.07849027 -0.09184848 0.2054756 -0.4259157 0.1550672 -0.19631253 0.47389457
-0.3135422 0.07434054 0.28572276 0.13127717 -0.16195661 -0.2708377 -0.06415532 0.06260034
-0.119638056 -0.08939152 0.08145104 -0.016804254 0.085356906 0.051261574 -0.25832668 0.11619896
0.47427666 -0.33500087 -0.2887605 -0.08539763 -0.6070393 0.1775776 0.06523889 -0.20792107
0.14677939 0.09192674 0.10744917 0.034697305 -0.105377086 0.17848054 -0.053306 0.0053612813
-0.22623783 0.06142919 0.045592558 0.42812747 0.4363102 -0.05725995 0.038567107 0.11778783
-0.14085686 -0.05255596 -0.18760833 0.19800057 0.19367093 0.23063892 0.14724033 -0.29745483
0.27334645 0.033241518 -0.079091854 -0.35488904 -1.5774555 -0.08643976 0.13849899 -0.052496422
-0.047314074 -0.273806 -0.18754704 0.034009855 -0.11287962 -0.15082367 -0.30956435 -0.045326754
-0.011360357 -0.6110353 0.249688 0.27343363 -0.0954316 -0.03589375 0.074161164 0.18540272
-0.10463915 -0.21894625 -0.085420266 -0.14705592 0.0061526336 -0.10157411 0.08427452 0.20375958
-0.3770303 0.17264658 -0.14033288 0.08581959 -0.16683519 0.06682044 -0.013220376 -0.08439966
0.095010266 -0.12463609 -0.027230747 -0.14716534 0.3366431 -0.08566704 -0.15238804 0.22401014
-0.16156651 0.24612992 -0.07813477 -0.31687665 0.1570877 -0.12577212 0.17170116 -0.07657961
-0.041317552 0.011505411 0.16251619 0.13499542 0.2830779 0.11473424 -0.10016482 -0.03992943
-0.025222627 0.18103164 0.10415031 0.010960516 0.0097566 0.25798544 -0.080374174 -0.13960613
0.06810191 0.03985184 -0.06498486 0.1629358 0.005840433 0.13814951 0.15080447 0.3528853
-0.11297411 -0.4260459 -0.40515167 -0.93641627 -0.18601988 -0.13560808 -0.06852098 0.07973619

fc1.bias f4 [64]
00000000: 744f 973d 0ea5 13bd 4b67 02be 1f9e 0ebd
00000010: 1587 1a3e 79a0 a1bd 71cc 80bd e721 c43d
00000020: baa9 d73c 5202 1fbe 6400 bf3d 26f5 913d
00000030: 1c37 0c3e 56bd e63c 4860 7b3c d601 b2bd
00000040: 8ecf 8a3d 7b00 0b3c 137a 9b3d 086c 16be
00000050: b1bd d5bd da78 20bd a7e4 0dbd 50fe dcbd
00000060: 82d6 0fbe edcd f73d 5a3c a4bd c2ff 08be
00000070: 50ae 053e 057a 803d 450c c0bd 86b1 063d
00000080: 5e2c 263e 5e73 56bd e86a e9bc 7be6 983d
00000090: 9742 00bd 0aef 8c3d fdb8 debd 573c c7bc
000000a0: 008f 3cbd ba7a 6b3d ceed eabd 48d4 4e3e
000000b0: bc40 0036 a4d6 e6bd a941 803d 3561 f6bc
000000c0: 0cab e8bd de05 573e e0ec 4abe 0a89 023d
000000d0: af87 873d fbf5 60bd 0d5f 44be 264e b23d
000000e0: 38a0 d73d 3784 81bc 9b78 49be 7014 b5bd
000000f0: 7455 133c 372e a33d f725 8c39 9d6d 2bbc
0.07388201 -0.03604608 -0.12734716 -0.034818765 0.15090592 -0.07891936 -0.06288994 0.09576779
0.02632605 -0.15528229 0.093262464 0.071268365 0.13692898 0.028166454 0.015342779 -0.086917564
0.06777869 0.008484001 0.07591643 -0.14689648 -0.104365714 -0.039177753 -0.034641888 -0.10790694
-0.14046672 0.12099824 -0.08019324 -0.13378814 0.13054776 0.062732734 -0.0937734 0.032884143
0.16227862 -0.052356116 -0.02849336 0.07465836 -0.031313505 0.068815306 -0.108751275 -0.024320764
-0.046034813 0.057490088 -0.11471139 0.20198166 1.9111167e-06 -0.11271408 0.06262524 -0.030075649
-0.113607496 0.20998332 -0.19816923 0.031868972 0.066176765 -0.054922085 -0.19176884 0.08706312
0.10528606 -0.015810115 -0.19674914 -0.08841789 0.008992542 0.07967799 0.00026731167 -0.010463146

fc2.weight f4 [128, 64]
00000000: 79ba 6fbd a30b c5bd 86df f23d 1685 9c3d
00000010: 47cd 3bbd 536e 81bd ce65 e83d 8041 bcbe
00000020: 9857 e7bb 1d23 9abd 4780 30be d85f 3fbd
00000030: 8285 81be 2a73 053e ffcc 0b3e e251 5cbe
00000040: 2a72 22be a414 b2bd c230 41bd 5a9b 39be
00000050: a2ee cdbe 6a87 5d3e 2984 953d 8396 d3be
00000060: 9fe0 51be f39f d7be 6e7d 6dbd 1b7a 17be
00000070: 4958 393e 79eb fe3d c99b 35be d70b 7e3e
00000080: a15d 43bd e11a 23bd 0158 253e bc22 d8bd
00000090: f86d 103d 528d 02be a5b3 973e 60e7 be3d
000000a0: 4bc3 583e 200e fe3c 4629 27be 22a6 613e
000000b0: 9529 38be 81d1 923d b59b 95bd 61b3 85be
000000c0: 4ff8 8d3e 35d1 9fbd f745 f8bd 5fc8 b0be
000000d0: 0bd1 33be 10dc c43b c872 623e 6303 81be
000000e0: ef32 f2be ba5b 78bd 4a91 4d3d 693b 573e
000000f0: 008b 733d 96be e5bc 2318 32be bad1 dabd
00000100: ab5a 15bb 7639 5c3d b1b5 193e ecdb cdbd
00000110: f86e 923d 66b8 073e 9fbf edbd 70c5 8a3d
00000120: 09e5 753d e2cb 4a3d cb86 4dbe f1cc e4bc
00000130: d96d 003e 2fc8 813d ee26 843d 2e63 65be
00000140: 9380 dcbd 823b 3fbc b1c5 1e3e d21a 31be
00000150: c939 9abe 2271 37be a647 9a3c cc6a 56bd
00000160: 1681 003e a2ba afbd 011c 443e a682 c4bd
00000170: 57b0 093e ac80 ea3c b093 6ebe 894f 89be
00000180: a4df 18bd 4a26 c9bd e02b 30be 61e2 90bd
00000190: fcb2 efbd c75c 9ebd a6ae 23be 5238 e7bd
000001a0: fd2e 3bbc 9194 21bd d695 2bbe 1a97 313e
000001b0: 05e5 2e3e 6de8 59bb 2f1b 2c3e 4fd2 7e3e
000001c0: 39ca 333d f5a3 a8be 0df1 4d3b b2c6 a9bd
000001d0: 87c7 b8be 9404 ed3d 5dc4 ae3d e3b6 6c3c
000001e0: b561 003e b851 223e cac2 893d b6a4 a73d
000001f0: 7d46 d33d 3ec4 333d c5d7 8dbc 1d05 113e
00000200: d8b7 99bc 5415 b1bd a980 313e 7cdc 173e
00000210: 29dd b03e 193c fa3d fa62 24be 69c7 9d3e
00000220: 4ad0 0a3e 6478 0bbe 4ca9 f83d 42e3 b53e
00000230: cb97 25be 6cfc ecbd c380 823e a2ef 13be
00000240: e78c 09be f14b 0a3e 8aa6 01bd 9c36 e83c
00000250: e7ec 30bd 05d8 9abd 6d91 493e 0a0b 413d
00000260: 3242 733e 9e54 86bd 639a c63c 45b4 9a3d
00000270: f9dc 0cba 0daf 39be eec0 89bd 88f1 203e
00000280: 841f a0bd 9a69 973d d9a9 e5bd 797f a83d
00000290: f3ae 403e 81e9 703e eaa5 363e 8f7b 60bd
000002a0: 3665 8e3e 10a9 3bbe 294d ecbe ed2b 11bd
000002b0: 5f32 80bc 3a8a d23d d7c5 fabd d63b 1f3e
000002c0: c643 983d d2b1 8c3d 35e3 0f3d c1c6 523e
000002d0: c2cd 1a3d 973a 113e 939a fdbd fea9 6d3e
000002e0: 1592 1f3e 08a1 da3d 3076 583e dabb 13be
000002f0: 80e4 d4bd d4b1 4cbe f64b 05be 8f76 80bd
00000300: c146 e7bb a77b b0bd 1ae4 8e3d 40a0 e13e
00000310: af5a 033d 1ba8 5bbe 753c 57bd 2cfc b8bd
00000320: 43f6 a2be d968 e5bd b848 c7bd b240 62be
00000330: 7035 91be 7ff8 2e3d dc42 353e 3df9 b8be
00000340: 6e83 4abe e3ac b83e 0b32 92bd 5b1c edbb
00000350: 709f e1bd 1af9 363c c4b4 12be 77dd 4b3d
00000360: 7f54 05be dba6 163d 2164 c83d 9858 37be
00000370: 93e4 edbd 24b8 00be 2275 00bf b215 023f
00000380: d8a9 9bbd fb31 aebe 4599 c63d 02fe 16be
00000390: e82f 97be 0569 ddbe fb30 3c3d 60b4 f5bd
000003a0: 6cf9 693e 29a4 b3be 0392 5cbe 4a52 78be
000003b0: cde6 f33d dbed ecbe 23b1 f7bd 5198 55be
000003c0: 29c6 e6bd 4d2e 07bd eaae 863e 4847 2abe
000003d0: c8a1 693e 7120 c13c ddf7 6f3e 6151 8d3e
000003e0: 7a31 48be bd39 ee3d 5d51 bebd 3234 21be
000003f0: 24d7 0dbc 9924 a93d 8eb2 3fbe b0b5 4b3e
-0.058527444 -0.0962136 0.1185904 0.07642572 -0.045850065 -0.06319871 0.11347543 -0.36768723
-0.0070600025 -0.075262286 -0.17236434 -0.046722263 -0.2529717 0.13032213 0.13652419 -0.21515611
-0.15863863 -0.08695343 -0.04716564 -0.18125668 -0.40221125 0.21633688 0.07300598 -0.4132577
-0.20495842 -0.4211422 -0.057980947 -0.14792673 0.18100084 0.124472566 -0.17735209 0.24809204
-0.047696713 -0.039820556 0.16146852 -0.105535 0.035261124 -0.12749222 0.29629245 0.09321475
0.21168248 0.031012595 -0.16324338 0.22036031 -0.17984612 0.07168866 -0.073050894 -0.26113418
0.27728507 -0.07803575 -0.1212272 -0.3452787 -0.17560212 0.006007679 0.22114098 -0.25197896
-0.47304484 -0.060634352 0.050187387 0.21018757 0.059458733 -0.02804498 -0.1739202 -0.106845334
-0.0022789638 0.053765737 0.15010716 -0.100517124 0.07150072 0.13253936 -0.116088144 0.067759395
0.060032878 0.049510844 -0.2007095 -0.027929755 0.12541904 0.0633701 0.06452738 -0.22401115
-0.10766711 -0.011671903 0.15505101 -0.17295387 -0.30122212 -0.1791425 0.018832993 -0.052347943
0.12549242 -0.08580519 0.19151308 -0.09595232 0.13446175 0.028625809 -0.23298526 -0.26818493
-0.037322655 -0.09821756 -0.17204237 -0.07074428 -0.117040604 -0.077325396 -0.15984592 -0.11290039
-0.011424777 -0.039448325 -0.16756377 0.17342797 0.17079552 -0.0033250109 0.16807245 0.24884914
0.043894026 -0.3293759 0.0031424195 -0.08289851 -0.36089727 0.11573139 0.08533547 0.0144479005
0.12537272 0.15851486 0.06726606 0.08185713 0.10316179 0.043888323 -0.017314801 0.14162107
-0.018764421 -0.08646646 0.17334236 0.14830202 0.34543732 0.12218494 -0.16053382 0.308162
0.13556018 -0.13620144 0.12141666 0.35524946 -0.16171186 -0.11571583 0.25488862 -0.14446881
-0.13432656 0.13505532 -0.031652965 0.028346352 -0.043194678 -0.07560734 0.19684382 0.04712967
0.2375572 -0.06559108 0.02424354 0.07553915 -0.00053735037 -0.18133183 -0.067262515 0.15717137
-0.07818511 0.07393189 -0.112140365 0.082274385 0.18816738 0.23526575 0.17836729 -0.054805335
0.27811593 -0.18326211 -0.4615262 -0.03544228 -0.015649019 0.10280271 -0.12244766 0.1555017
0.07434802 0.06869854 0.03512879 0.20583631 0.037793882 0.14182507 -0.12382998 0.23209378
0.1558307 0.106752455 0.21138835 -0.14427128 -0.103951454 -0.19989711 -0.13017258 -0.06272613
-0.007057995 -0.08617335 0.06977101 0.44067574 0.032068904 -0.21450846 -0.05254789 -0.09032473
-0.31828508 -0.11201639 -0.09730667 -0.22094992 -0.28361082 0.042717453 0.17701286 -0.36127654
-0.19776699 0.36069402 -0.07138451 -0.0072360463 -0.110167384 0.011167789 -0.14326769 0.049771752
-0.13020514 0.03678022 0.09784723 -0.1790489 -0.11615863 -0.12570244 -0.5017873 0.50814354
-0.076007545 -0.34022507 0.096972026 -0.14745334 -0.29528737 -0.43244186 0.04594515 -0.119972944
0.22849053 -0.35086182 -0.21540074 -0.24250141 0.11909256 -0.4627522 -0.12094333 -0.20858885
-0.11268265 -0.03300314 0.26305324 -0.16628754 0.22815621 0.02357504 0.23434396 0.2760115
-0.19550124 0.116321065 -0.092928626 -0.15742567 -0.008657251 0.082589336 -0.18720457 0.19893527

fc2.bias f4 [128]
00000000: e676 41bc 27b4 493e ed48 ddbd dea9 1dbd
00000010: c09d a8bd a558 973c e9cb 1e3e 038f f7bd
00000020: 0a8b d1bd 43a1 5a3e 39da 59bd bced f13c
00000030: 567b 33bc d0c7 43bd a633 d8bd 8bc0 0c3e
00000040: 23a2 9e3b 4cd5 47bc e98d 3b3e 0a79 b53d
00000050: d54d 543e 2b32 8e3d a649 823d 8f70 423d
00000060: 184c 813e 5714 a3bd 705a f9bc b883 82bd
00000070: 7637 24be ad04 4a3e c1c3 0b3e 0237 5ebd
00000080: f161 1bbe 3ed5 6d3e eb16 783d fa63 f83d
00000090: a8c7 c9bd 530b e03d 9a2e f83d ec83 61bd
000000a0: 51fe 9a3e d102 143e ae9b 92bd cb14 263e
000000b0: 19df 673d 1363 34be b7e8 84bc 76d9 1b3e
000000c0: 7c0b 3fbd 96b9 03bd e226 943c 6662 3e3e
000000d0: 214f 173c ab01 ddbb 1529 103d 9408 533e
000000e0: 9086 f4b8 3e80 5d3d 509d 2fbd 3ce8 853c
000000f0: 99b3 dcbc efc1 23bc f0c8 6f3d 69dc 67bd
00000100: cc4e 18bd 3cd8 aebd 08f2 8abd de18 89bc
00000110: a0c7 ccbc 8843 d1bb 2f7c 083d 44e3 5d3e
00000120: 8225 12be 2148 03be 251c 593d ca81 9dbd
00000130: 00ea 9c3c 822d d9bd 6272 e6bd 5ba6 5d3e
00000140: 8ce3 7d3e 088a b4bd 58a4 d2bd b9df 22bd
00000150: 2e32 eb3d 5d4d dd3c 1027 593d cf72 8a3b
00000160: e328 c23d 4c8a 263e f8f8 2e3e e508 623d
00000170: d099 4cbc ae3a 0ebd 7261 693e 67f9 eb3d
00000180: 0926 843b 0727 053e 24b5 ec3d 9d62 2c3d
00000190: 278b acbc ce56 3bbd 384f 4e3e 830b 8abd
000001a0: 0161 2c3b 5e29 103e 4fc5 9c3d 1450 a6bd
000001b0: 6d91 173e 1742 a33d 93f0 963d 4051 debd
000001c0: ae5c 32bd b0ba 04be f7c6 243e afb2 10bd
000001d0: 9578 efbd 8ee9 173e b88b 443d 2e13 f6bd
000001e0: 8a5d fb3c cc79 543d b01e da3d 5253 90bd
000001f0: 6698 b93d ebad ffbd 997c edbc daff 29bd
-0.011808133 0.19697629 -0.10804925 -0.038492076 -0.082332134 0.018474886 0.15507473 -0.12087824
-0.10231598 0.21350579 -0.05318663 0.029532306 -0.010954699 -0.047797978 -0.10556726 0.13745324
0.0048411055 -0.01219685 0.18315853 0.08860977 0.20732816 0.069431625 0.063617036 0.047470625
0.25253367 -0.07962864 -0.030438632 -0.063727796 -0.16036782 0.19728346 0.13648893 -0.05425168
-0.1517408 0.23225877 0.06056873 0.12128444 -0.098525345 0.1093966 0.121182635 -0.05505745
0.30272153 0.144542 -0.071586 0.1621887 0.056609247 -0.17615919 -0.016224248 0.15219674
-0.04664181 -0.03215941 0.018084947 0.18592224 0.009235174 -0.0067445836 0.03519543 0.20608741
-0.00011659891 0.05407738 -0.042874634 0.01634609 -0.026941108 -0.009994968 0.05854124 -0.056606684
-0.03718452 -0.08537337 -0.06784445 -0.01673549 -0.024997532 -0.006386224 0.033321556 0.21668726
-0.1427212 -0.12820484 0.053005356 -0.07690771 0.019154549 -0.10604383 -0.112522855 0.21645491
0.24793833 -0.0881539 -0.10285252 -0.03976414 0.114841804 0.027014429 0.05301577 0.004225112
0.09480455 0.16263694 0.17087162 0.055184264 -0.012487844 -0.03472393 0.22791079 0.11522179
0.0040328545 0.13003169 0.11557987 0.042086232 -0.021062447 -0.04573708 0.20147407 -0.06740477
0.0026302936 0.1407828 0.07654821 -0.081207424 0.1480157 0.0797159 0.07370105 -0.10855341
-0.043545417 -0.1296184 0.16091524 -0.035326656 -0.11692921 0.14835188 0.04798481 -0.12015377
0.030684251 0.051873967 0.106503844 -0.07047142 0.09062271 -0.12484344 -0.028990077 -0.041503765

fc3.weight f4 [128, 128]
00000000: 49c5 bdbc 3b0f b1bd 1dc4 25be 2bcb ed3d
00000010: 33fb 763c be52 41bd 02f8 eb3d 5efd 7d3d
00000020: a29c 933e b0a5 1d3e ea5e 253e b555 943d
00000030: ef11 ba3d 0cf3 273e e1f6 9ebd 7ec5 153d
00000040: 6439 dfbd 5778 f7bd a403 fbbd cee4 80bd
00000050: 5529 82bd e92a 053c 7985 6a3e 2267 2e3e
00000060: e5bd 1abe f54f 3dbe 116c dcbe 4d3e f3bd
00000070: 0d62 91bc b3a8 55be f433 3abe 2cc1 f23c
00000080: e518 2a3c e345 033d 98a1 6f3b f5f6 a2be
00000090: c996 1ebe 8671 c73d 8002 92bd eaaf 193e
000000a0: 2f97 89bc 7b68 23bd cb71 66be 06cd a0be
000000b0: cb2e 5f3c 941f 30bd a77b 23bc ceb7 3fbd
000000c0: 4d60 a53d a2dc a03c 7ae5 2f3d c845 5cbe
000000d0: dcce 943d abf9 cd3d 4892 4bbe 43e0 5dbd
000000e0: 14fe e03e e9ae 82be 40c1 4cbc 5852 b53d
000000f0: 4791 6a3e e339 173d b32e 42be dcfa d83d
00000100: 1f7a c73d 7ed0 7dbd a1a4 06be df26 58be
00000110: 773d 353e 11d8 ab3e 15f4 d2ba 56a2 b63b
00000120: 316c 813e 7686 71be b827 9f3e cb55 fabd
00000130: 1693 2fbe 9824 513e 3121 cf3d 64d6 7e3d
00000140: 32c6 0abe f8e1 97be 12ee bf3d 86de 2c3e
00000150: 79f7 893c a78b ffbd dd0e 5fbe d74a 80bd
00000160: 616d 913c a943 30bd 2a99 f6be dafa 8bbd
00000170: bb72 02be a880 2abd 6f64 d3bd 0551 8dbe
00000180: 6b31 9b3e ad51 b3be 7153 143e aa06 323e
00000190: f702 b6be a68e 8e3d a08d 85be 939c 6b3d
000001a0: c3e8 60bd 95d6 403e 402e 0bbe fc95 9fbe
000001b0: 1f8f aebe bdd8 833e a8f9 e1bd e07c 503d
000001c0: 5953 fb3d 4358 4f3d a871 01bf b476 ef3e
000001d0: e2f8 883d 0192 1a3e 269a a9be de85 cc3d
000001e0: 9c42 de3e 04e5 86be 413c 9ebb 119b a3bd
000001f0: 7e9c 76be 56d3 e53d d598 b53b d2ce 31be
00000200: ffcc b1bd 5237 2d3e b628 8ebe 37e6 37bd
00000210: dfb8 64bd 3f24 9dbc 6e06 21be 5b14 1f3e
00000220: 6fe6 00be 3082 c0bd b70f 66bd 8335 b03d
00000230: adff 1c3e 5667 363e 77ba cf3c 9b28 913e
00000240: 80d6 5e3b b271 93be b37b e5bd 5b8d 193d
00000250: 97e0 afbd c417 423e 96ed 4abe 5ba9 5ebe
00000260: 3a23 bd3c b603 61be d943 5a3d f47f efbc
00000270: 2b05 08bf 13fe 12be c4ef 713d ce6c 023e
00000280: e261 963e 3013 763e 819a 7c3e 8d8c a6bd
00000290: 6dba 313d c729 703d 66ed d73d be47 01be
000002a0: 81bb a3be 31f7 c13d 4bea 483b 99a9 aa3d
000002b0: dbd9 f1be d1a0 b7be afff 973d a593 c83c
000002c0: d9de 5bbe 090c ef3c c6a2 5a3e 3c26 f63d
000002d0: e993 64be f2ed 0bbd 57d5 f0bd 7bf1 c43d
000002e0: 8425 84bc 6d9d 643d 3032 383d 2d98 cebd
000002f0: 3627 31be 14fc 053e afb3 ac3d d793 503e
00000300: 4d77 5ebc b91a 3b3e d5e5 6fbe 7cd5 d9bc
00000310: 0e8e 813e 520e 453e fccc eabd 69f7 50be
00000320: d32d ad3d 3e33 b03d a2d5 38be 420f 603e
00000330: 2da4 9f3d 7d5a 66be fffe 503e 4aa9 f33d
00000340: efc6 bdbc 378f ecbd 0fce 90be a714 4f3c
00000350: 6197 8f3e c3fe 7f3d b68e 84be 460c c4bc
00000360: 4110 7bbb 4eee a23e dacb fc3d 71f9 6fbe
00000370: 2ff4 38bd 158b 0ebe ed77 9dbe b02a 183e
00000380: 5d70 913e 34b5 84be e321 b33d 7b5c d8be
00000390: c6e9 b1bd 4969 af3e 08aa 14be aa52 82bd
000003a0: 7607 54bd c04e 1e3e d576 c9bc d219 c83d
000003b0: fa6f 13bd c9a2 b5bd b8ab 4fbe 84ff ddbd
000003c0: 397f 2e3e 1ba9 b53d 5995 e1bd 4e43 a1be
000003d0: 8881 91be a086 bbbe 5a26 0fbe a923 943e
000003e0: 4c21 3f3e 2373 0c3d 28d2 893c 396a 1abe
000003f0: 7cdf f0be 63b2 da3e 1277 eebe 701d 65be
-0.023165362 -0.08645483 -0.16188093 0.11611017 0.015074539 -0.04719805 0.11521913 0.062009208
0.2883044 0.15395236 0.16149488 0.0724291 0.09085452 0.16401309 -0.07761932 0.036565296
-0.10899618 -0.120835 -0.12256554 -0.06293641 -0.0635554 0.008127906 0.22902478 0.1703153
-0.15111502 -0.18487532 -0.43051198 -0.11877117 -0.01774695 -0.20865135 -0.18183881 0.029633127
0.010381912 0.03204907 0.0036564823 -0.31829038 -0.15487207 0.0973845 -0.07129383 0.15008512
-0.016795723 -0.039894562 -0.22504346 -0.3140642 0.013621996 -0.042998865 -0.0099782115 -0.04680615
0.080750085 0.019636456 0.042943455 -0.21510994 0.07266018 0.10057386 -0.1988002 -0.05416895
0.43943846 -0.2552407 -0.012497246 0.088535964 0.22906981 0.03692044 -0.18963127 0.10594723
0.097400896 -0.06196641 -0.13148738 -0.21108578 0.17699228 0.33563283 -0.0016094471 0.005573551
0.25277856 -0.23586449 0.3108499 -0.12223395 -0.17145953 0.20424116 0.10113753 0.062216178
-0.13552168 -0.29664588 0.0937158 0.16881761 0.016841637 -0.124778084 -0.21783014 -0.062642746
0.017752351 -0.043033276 -0.4816373 -0.068349555 -0.12739079 -0.041626602 -0.103218906 -0.27600875
0.3031114 -0.3502325 0.14484955 0.17385355 -0.35549137 0.06960802 -0.26084614 0.057522368
-0.05490948 0.18831857 -0.13591862 -0.31169116 -0.34093568 0.25751296 -0.11033946 0.05090034
0.12271757 0.050621282 -0.5056405 0.4677025 0.06688096 0.15094759 -0.33125418 0.09986471
0.43410194 -0.263466 -0.00482896 -0.07988561 -0.24083135 0.1122195 0.0055419006 -0.17364052
-0.08681678 0.16915634 -0.27765435 -0.044897284 -0.05584037 -0.019182323 -0.15725109 0.15535109
-0.12587903 -0.09399831 -0.05616733 0.086039566 0.15331908 0.17812857 0.025357468 0.28351292
0.0034002364 -0.2879768 -0.112052344 0.037488323 -0.08587759 0.18954378 -0.19817194 -0.21744291
0.023088086 -0.21974072 0.05328736 -0.029235817 -0.53132886 -0.14354734 0.05906655 0.12736818
0.29371554 0.24030757 0.24668314 -0.08132277 0.04339068 0.058633592 0.10543327 -0.12625024
-0.31978992 0.09470976 0.0030657228 0.083331294 -0.47236523 -0.3586488 0.07421815 0.024484465
-0.21471728 0.029180543 0.21351156 0.120190114 -0.22322048 -0.03416247 -0.11759441 0.09616371
-0.01613117 0.055814195 0.044969738 -0.10087619 -0.17300114 0.13084441 0.084327094 0.20368896
-0.013578248 0.18271913 -0.23427518 -0.026591055 0.25303692 0.19243744 -0.11464879 -0.2040688
0.08456006 0.08603524 -0.18050244 0.2188082 0.07794986 -0.22495456 0.20409773 0.11897524
-0.023166148 -0.115507536 -0.2828221 0.012639201 0.2804518 0.06249882 -0.2589013 -0.023931634
-0.0038309249 0.31822437 0.12343569 -0.23434998 -0.045154747 -0.13920243 -0.3075556 0.14860034
0.2840604 -0.25919497 0.08746698 -0.42258057 -0.08687167 0.34260014 -0.14517987 -0.06363423
-0.051764928 0.15459728 -0.024592796 0.0977055 -0.03599546 -0.088689394 -0.20280349 -0.10839751
0.17040719 0.08870145 -0.11014814 -0.31496662 -0.28419137 -0.36626148 -0.13979474 0.28933457
0.18665045 0.03428949 0.016823843 -0.15079583 -0.47045505 0.42714223 -0.46575218 -0.22374511

fc3.bias f4 [128]
00000000: 3f19 153e 1557 ffbd 103d 923e 6c1c 863c
00000010: dcc7 7c3e 4bcf 4a3e 98b6 76bd 9bf9 893e
00000020: 4e29 463d fa5f c2bd 29e9 b33e 6a3f 253e
00000030: 871f 1ebd c6f8 33be d37a 993d 23a5 13be
00000040: 6b5d 643d 3390 e2bd 5189 2c3e 1133 6b3d
00000050: a61e 9b3e 8f54 34bd 4ccc 06be 8cb6 703d
00000060: 6edc b33e 56df 2b3e 5543 233e e0eb 453c
00000070: bcf1 b4bc 6215 aa3d c4f1 2bbc 138c cabc
00000080: 7799 933d 438e 973e 870a 853d a95d 6d3e
00000090: 55fa 7fbd 9d55 983e 19e3 e83d 8b36 5b3e
000000a0: 0f78 813d b321 a8bd 51e5 3a3e 0962 773e
000000b0: 6848 a3bd c2ca 8f3d 64c8 52bc 95e8 8cbe
000000c0: e57f 073d af5f c23d f123 263d 5219 09be
000000d0: cdf3 ce3e 6974 973d 8102 abbd e9fc 8c3d
000000e0: 96a8 3e3c ee87 333e 03de 22be ab21 513e
000000f0: 5777 a93e f624 72bd 767a bc3e be2e 293d
00000100: 6c85 6f3d 15c7 c0bd 015e 51be 9875 863d
00000110: 5240 cfbb d049 8cbd 33ed 173d af8c 043d
00000120: dc4a dcbd 9d6f 473e b52a 3a3c 1b17 b23d
00000130: 2852 be3e cb38 d43e 9d4c 34be bf20 29bd
00000140: 0e41 44be 752f 8d3e bd48 2b3e 2517 1a3e
00000150: f839 9dbd bee4 003d 5937 f9bb 1eee 2dbe
00000160: 5249 7fbd 8558 4cbd 04d2 bc3c fa11 a93e
00000170: 8dfc bfbd e1f3 1fbe 3894 103d 7868 833d
00000180: cf32 273d 4ac5 a7bd 3058 413e 7f4c 36be
00000190: a6f2 343e 9669 7cbb aa33 3cbe 344a 203e
000001a0: 1334 063d 6c5e 0ebd f391 a8bd 7c45 95bd
000001b0: 6443 0e3e 5bb1 71bd d1c5 b43d cf4b 303e
000001c0: 26a7 ae3e 2850 df3c cc48 453e 8373 0f3d
000001d0: 9d39 0bbe 892f 9a3e 5788 2cbe 33e1 b3bd
000001e0: 2a18 a4bd e060 fc3c a319 2d3d ba16 0b3d
000001f0: b1a3 773d 90c7 db3e bc99 c03c d6d4 d5bd
0.14560412 -0.124677815 0.28562212 0.016370974 0.24685615 0.19805638 -0.06023273 0.26948246
0.048379235 -0.09490962 0.35138825 0.16137472 -0.038604286 -0.17575368 0.0749413 -0.14418463
0.055753153 -0.1106266 0.16849257 0.057421748 0.3029682 -0.044025954 -0.1316387 0.05876784
0.35129112 0.16784415 0.15943654 0.012080163 -0.022087924 0.0830486 -0.010494653 -0.024724996
0.072070055 0.29600725 0.064961486 0.2318026 -0.062494595 0.29752818 0.113714404 0.21407525
0.063217275 -0.082095526 0.1825154 0.24158491 -0.07972795 0.07021095 -0.01286516 -0.27521196
0.033080954 0.094909064 0.04056162 -0.13388565 0.4042038 0.0739525 -0.08350087 0.06884176
0.011636874 0.17532322 -0.15905003 0.20423 0.33098862 -0.05911728 0.3681218 0.041304342
0.05847685 -0.09412972 -0.20446016 0.06565398 -0.0063248063 -0.06850016 0.037091445 0.03236073
-0.10756466 0.19476171 0.011362721 0.08695813 0.37172055 0.4144958 -0.1760735 -0.041290995
-0.19165441 0.2757527 0.16726966 0.15047891 -0.07677072 0.031468146 -0.007605475 -0.16985366
-0.062325783 -0.049889106 0.023049362 0.33021528 -0.09374342 -0.15620376 0.035297602 0.0641641
0.04081994 -0.08191927 0.18881297 -0.17802618 0.17670688 -0.0038515083 -0.18379083 0.15653306
0.032764506 -0.034758016 -0.082309626 -0.07288644 0.13892895 -0.05900703 0.08826793 0.17216419
0.341119 0.027259901 0.19266051 0.03502227 -0.13596196 0.3011439 -0.16848885 -0.08783188
-0.080124214 0.030807912 0.042260777 0.03395722 0.060458843 0.42925692 0.023510806 -0.10440986

fc4.weight f4 [32, 128]
00000000: 3a13 f7bd 08d0 2fbe 287a 08be 7732 52bc
00000010: ed00 55be 1f00 8d3d b2bc 85be ce67 8abe
00000020: daf0 2d3d 97a9 333e f53c f2bd db95 05be
00000030: 1338 173d cb6d ebbd 441d 593e aed1 dfbd
00000040: 607e 24be 076f ec3d 85e8 343e 242a 51be
00000050: 1b82 aa3d 254e 013e 67dc d0bd 509d 00bb
00000060: 5ad4 0a3e 55bc 88bc 2c1a 1ebe ac8d 8dbe
00000070: b25c 203d 2faf 0bbe 3ad0 d6bd d775 233e
00000080: eeaf 193e db86 d7bd 075f ae3d a99e 83bd
00000090: 6268 6bbe 1a92 f9bd d265 533d 740a 12be
000000a0: 1c4f 88bd 25fe 3abe c4cc 92be d629 0fbd
000000b0: db42 673e 59c6 63bd 9e95 193d ab5c 9cbd
000000c0: 17a3 853e 34a5 153e 4066 7b3d acbc 06be
000000d0: 9635 3ebc 17d9 9e3d 56b7 92bd 34b5 36bd
000000e0: 5995 47bc 619a 6c3c 6ba0 81bd d723 66be
000000f0: 2378 0abd 0083 35be c7d4 eabd fb33 303e
00000100: 3088 dcbd 9aca a93d 570f 593d 22be dd3c
00000110: 4206 6cbe b1c8 063d fb44 023d bde9 7c3e
00000120: 51cd 34bc 57c0 80be 2817 e83b 3b99 24be
00000130: 6cdb 2fbe 21b4 09bd c7c9 0e3d d1db cd3d
00000140: ce58 c13d 8533 f1bd afd9 78bd ac3f 983e
00000150: d8f7 373e 023f ce3b 7567 52bd 687d 93bd
00000160: e2b4 e2bd 93bd 11be 1f19 1bbe 13d0 c73d
00000170: c500 d53d 4ae0 83bc 053c 55bd 1e29 5fbe
00000180: ec70 273e 90c1 f73d b14d 0bbe 9e84 1f3e
00000190: 50d2 24be 6edd 6dbd 3e1c bdbc bb4b 09be
000001a0: 8ebc 60bd 1888 b63b e64e 0b3d a7d5 63be
000001b0: a8f6 7ebd f33f 333c de2d d2bc c046 cebc
000001c0: c9fc 5a3d 74b6 023e 5ef8 8fbd a3d5 dcbc
000001d0: ba21 513d 6f24 2ebe d2f9 a7bd c902 9a3d
000001e0: c8ce 14be b369 1f3e 3d9a 763e 3c54 1a3e
000001f0: 043f 05be f83f 3ebd 9f4e b93d 6a4c bbbd
00000200: 07f0 ef3d f00b 023e a029 0ebe 6b45 de3b
00000210: 7363 34be 380b 19be 1a65 83bc 1fce f2bc
00000220: e4c9 0bbe 998c ba3c 7690 3dbe e9ab dbbd
00000230: 30f3 80bd 3581 ebbd f161 17be c852 04be
00000240: d3e0 033e 94ee 21bd 4ab2 8fbd c1cf ac3a
00000250: 5bf8 2abe 5e2c cf3d 30c9 c23d 8a41 723d
00000260: bd94 59be b093 7f3d c2cc 51bd b4b1 4d3d
00000270: c7c8 2fbe ef1d 45be 98e4 863d 4998 203e
00000280: 10f8 b4bd 0a54 803d c14e eebd e3ea 17be
00000290: d67a 3cbe b3b4 143e f2db 303d 3768 d43d
000002a0: 740b 1f3c 8695 3abe e02f 57bd b3cc ee3c
000002b0: b2a1 8c3d cd06 453c 2847 91bc 2b50 723d
000002c0: 2d1a b5bd 4771 bfbd 1548 9a3d 0808 31bd
000002d0: be5c 3ebe da9a 0c3e 169f 423e 071e 353e
000002e0: 2350 95bd 90bb 2abe ce19 903c c9f0 883e
000002f0: 4e23 4dbe 0646 903d 32ec 97bd ab96 f8bc
00000300: 05ac fbbd 90e0 533d 797b ebbd 3f73 d8bd
00000310: 3009 ac3d 837e d33c 2efc 4b3d 3fe5 f8bd
00000320: f742 b83d 2062 0b3e af76 383e 0b82 e0bd
00000330: 788b 503e 7f92 0ebd 13a3 d33d 745d ac3d
00000340: 2eef 123d b6a0 82be cc65 9dbd 1f30 bcbc
00000350: b077 e6bd 239c d6bd ff7f 353d 37e0 5dbe
00000360: 644b c0bc a452 363d ef47 66be 43fc eb3a
00000370: 21c2 41be 1041 94bd d8cf e73d adfd 15be
00000380: c470 a7bd c23b 793d 5843 e0bc 127f 2abe
00000390: 6d49 60bd 108c 22be e051 b63d dead 29be
000003a0: b573 17be 803b 38be 00da 90bd c208 33be
000003b0: adb5 68bd 3fe3 0f3e 7837 d8bc 4971 5bbd
000003c0: 86f1 a43c 29eb 8d3d ae62 a33d 6f99 92bd
000003d0: ef9a 33bd aa4c 313e 5f86 05bd de1f d3bd
000003e0: 2282 21be d15f 38bc 12d6 27be 202d b33d
000003f0: 0aab 84bd f31a d7bd 574f b93d 33be 22bd
-0.12064214 -0.17169201 -0.13327849 -0.012829415 -0.20801134 0.06884789 -0.26120526 -0.27032322
0.042466022 0.17545162 -0.11828033 -0.13045447 0.03691871 -0.11495551 0.2120257 -0.10928665
-0.16063833 0.11544614 0.17666824 -0.20426232 0.08325597 0.12627466 -0.101982884 -0.0019625016
0.13557568 -0.016691366 -0.15439671 -0.2764715 0.0391509 -0.13641046 -0.10488935 0.15962921
0.15008518 -0.105237685 0.08514219 -0.064267464 -0.22989038 -0.1218607 0.051610775 -0.142618
-0.06655714 -0.18261011 -0.2867185 -0.034952007 0.22584097 -0.05560908 0.0374962 -0.076348625
0.2610099 0.14613801 0.06137681 -0.1315791 -0.011609456 0.0775625 -0.07163875 -0.044606403
-0.012181603 0.014441104 -0.063294254 -0.2247461 -0.033805978 -0.17725754 -0.11466365 0.17207329
-0.10768163 0.08290596 0.052993145 0.027068201 -0.23049262 0.032906238 0.031804066 0.24698539
-0.011035279 -0.25146744 0.0070828386 -0.16074078 -0.17173547 -0.03361905 0.0348604 0.10051692
0.09440766 -0.11777405 -0.060754474 0.29736078 0.17965639 0.006294132 -0.051368196 -0.07201654
-0.11069657 -0.14232473 -0.15146302 0.09756484 0.104005374 -0.01609816 -0.052059192 -0.21793029
0.1635167 0.12097466 -0.13603856 0.15577933 -0.16095853 -0.0580725 -0.023084756 -0.13407795
-0.05486732 0.005570423 0.03401079 -0.2224947 -0.06224695 0.01094054 -0.025656637 -0.02518022
0.05346373 0.12764913 -0.07029794 -0.026957339 0.051057555 -0.17006086 -0.08201946 0.075200625
-0.14532006 0.15567665 0.24082275 0.15071195 -0.1301232 -0.046447724 0.09048199 -0.09145434
0.117157035 0.12699866 -0.13883066 0.0067831776 -0.17616062 -0.14945686 -0.01603942 -0.029639302
-0.13651234 0.02277212 -0.18512139 -0.10726149 -0.06296384 -0.11499254 -0.14783455 -0.12922204
0.12878732 -0.039534166 -0.07016428 0.0013184474 -0.16696303 0.10115884 0.0951103 0.059144534
-0.21248145 0.062396705 -0.051220663 0.0502183 -0.17166434 -0.192497 0.065865695 0.15683092
-0.08836377 0.06266029 -0.11636115 -0.14835696 -0.18406233 0.14522056 0.043178506 0.1037144
0.0097073205 -0.18221101 -0.05253589 0.029150343 0.068667784 0.012025547 -0.017734125 0.059158485
-0.08842883 -0.09347778 0.0753328 -0.04322055 -0.18590066 0.13730946 0.19005999 0.17687236
-0.072906755 -0.16673112 0.01759043 0.26746204 -0.20032999 0.07044606 -0.074180976 -0.030345282
-0.122886695 0.05172783 -0.1149816 -0.105688564 0.0840019 0.025817161 0.049801044 -0.121531
0.089971475 0.1361165 0.18014024 -0.10962304 0.20365703 -0.03480768 0.10333838 0.08416262
0.03587263 -0.25513238 -0.07685432 -0.022972165 -0.11253297 -0.104789995 0.04431152 -0.21667562
-0.023473449 0.044512406 -0.22488378 0.0018004257 -0.1892171 -0.07238972 0.1131894 -0.14647551
-0.08175805 0.060848005 -0.027375862 -0.16650036 -0.054757524 -0.15873742 0.08902335 -0.16570231
-0.14790232 -0.17991447 -0.0707283 -0.1748381 -0.056813885 0.14051531 -0.026393637 -0.053574834
0.020134699 0.06929619 0.07977806 -0.071581714 -0.043848928 0.17314401 -0.03259885 -0.103088126
-0.15772298 -0.011253313 -0.16390255 0.08748841 -0.064779356 -0.10503187 0.09048336 -0.03973217

fc4.bias f4 [32]
00000000: 7574 0c3d 42ee ce3c 0808 2ebe 43d3 56bd
00000010: f841 96bd 1649 593e 3927 c83c 705c cabd
00000020: c863 a4be 97d8 fc3b 4fca 493e d551 82bc
00000030: 4740 a1bd f81b 03bd 7edd d0bc 9672 133e
00000040: 000e dd3e d5df 43bd d8d5 9b3c 4665 b73c
00000050: 8c8c 663d 81c0 683e 0c49 ca3d ffd9 c13c
00000060: 0f07 083e ac0a f6bc 9e6c ab3c 139d 103c
00000070: d1f9 c5bd 988e 68be 16a5 f5bd e312 a2bd
0.03429075 0.025260095 -0.16995251 -0.05244757 -0.07336801 0.21219286 0.024432765 -0.09880912
-0.32107377 0.007716249 0.19706081 -0.015908161 -0.07873588 -0.032009095 -0.02549624 0.1439918
0.43174744 -0.047820885 0.019022867 0.022387158 0.05628638 0.22729684 0.09877214 0.023663519
0.13283943 -0.030034386 0.020925816 0.008826512 -0.09666789 -0.22710645 -0.11994378 -0.079137586

AL.weight f4 [4, 32]
00000000: 9765 97be 7749 f53c 9142 96bd c064 1e3d
00000010: c31d c33d 3855 8c3d 0674 29bb ecbf 26ba
00000020: 9f97 a9be 1651 7a3e 46f4 963d 81ec 9a3e
00000030: 4dbf 29be bef6 8ebe 1bee 9abe 5d07 7dbf
00000040: e085 8abe 019b 7abe 103f 803e ac80 3dbe
00000050: 9167 a33e 6275 a2bc a679 e33e adda 98be
00000060: 592d 0ebf 0161 aa3e 8f1e e93d 2c87 ae3d
00000070: 6623 14be 0ba1 a1be 8313 403c c46f 693e
00000080: 6212 833e 2a4a 61be 3ae0 5a3e 2863 633d
00000090: ff4e b43e abfb 70bc 7f2b 3c3e 18fc c6bc
000000a0: c399 1c3e 272f 683e 840d 1c3e 3125 173e
000000b0: 75f4 e0bc fcd0 b23e 1c34 ebbe 9594 85be
000000c0: 9285 91be 9da4 383e 1cbd 5e3e 7db8 49be
000000d0: a01d b3be 2d0c 24bc a7f1 80bd 4ea2 a5bd
000000e0: b436 90b8 e542 773e 88f5 923e 6154 2dbf
000000f0: 9865 7bbe c86b a43a 1e64 94be 79d0 a4be
00000100: e716 853e 2cff b33e 4f9c 0e3e 103e bd3e
00000110: 5aa2 8dbe 2f94 98bd c273 58be c9b6 5c3d
00000120: ba54 263c 9844 833e 7b7b 0ebf 468b 3b3e
00000130: e6b8 b6be 4304 9f3e a5f5 19be 3e3b ba3e
00000140: da90 7ebe 43a9 7cbd 2f53 623e 35f0 b53c
00000150: 7e26 4abf e19b dc3d 18e4 31bf 4d99 c1bc
00000160: 3a84 f93e 60f8 c33e 32e6 c9be 7bd5 cb3d
00000170: 6362 763e 5573 91be c17c 23be 417e a7be
00000180: 746f 6ebe 5511 e73e fbcc b63d 8a1f 8d3d
00000190: e96d 5e3e 0780 7b3e d261 c93e cd06 bc3e
000001a0: 6894 01bf d936 573c 0c9d 593d 997e 923d
000001b0: adf9 8cbe 1786 443b 0beb c93d c2e1 88be
000001c0: 6af6 94be 5dd9 cbbe 9560 62be 6a44 b5bd
000001d0: fb29 1b3e ffcf c7be c5a1 813e ad2b ffbd
000001e0: 8fa6 0f3f f32b cdbe efe6 d4bc 3a57 ca3e
000001f0: ba9d 63be 149c 2f3e c024 1bbe 9255 adbe
-0.29569694 0.029942257 -0.07336915 0.0386703 0.09527161 0.06852192 -0.002585651 -0.0006360996
-0.3312349 0.24444994 0.0737081 0.30258563 -0.16576882 -0.27922624 -0.30259785 -0.9883936
-0.27055264 -0.24473192 0.25048113 -0.18506116 0.31914952 -0.019831363 0.44428748 -0.29854336
-0.55537945 0.33277133 0.11382782 0.08521876 -0.14466628 -0.3156818 0.011723402 0.22796541
0.25599962 -0.22000948 0.21374598 0.055514485 0.3521652 -0.01470844 0.18375967 -0.02429013
0.1529303 0.22674237 0.15239531 0.14760281 -0.027460316 0.34925067 -0.45938194 -0.26089922
-0.2842222 0.18031545 0.21751827 -0.19699283 -0.3498354 -0.010012669 -0.062960915 -0.08087598
-6.876644e-05 0.24146612 0.2870295 -0.67706877 -0.24550474 0.0012544328 -0.28982633 -0.32190302
0.25994036 0.35155618 0.13926814 0.36961412 -0.27662927 -0.07450139 -0.21137908 0.053885255
0.010152036 0.2563827 -0.55657166 0.18314847 -0.3568794 0.3105794 -0.15035112 0.36373323
-0.24859944 -0.061684858 0.22102045 0.022209266 -0.78964984 0.10771919 -0.6948867 -0.02363267
0.48733693 0.38275433 -0.39433438 0.099528275 0.24060969 -0.28408304 -0.15965559 -0.32713512
-0.23284703 0.4513041 0.08925816 0.06890781 0.21721615 0.24560557 0.39332443 0.3672394
-0.50617075 0.013135635 0.053128287 0.07153053 -0.27534238 0.002998715 0.09859284 -0.2673474
-0.2909425 -0.39814273 -0.22107156 -0.088509396 0.15152733 -0.39025876 0.25318733 -0.12459502
0.56113523 -0.40072593 -0.025989024 0.39519674 -0.22228137 0.17149383 -0.15150738 -0.33854347

AL.bias f4 [4]
00000000: 0703 e93d 6f17 1bbe 2f31 3fbe 0379 a4bc
0.113775305 -0.15145658 -0.18671106 -0.020077234

V.weight f4 [1, 32]
00000000: c8e7 b33e 05f8 49be 17af a03d 99f5 c33e
00000010: 7887 cfbd 81b5 863e 3748 aebe 3c36 363d
00000020: 0b46 cebe 581f 523e 3372 e8bb 89e7 6dbe
00000030: 3c6d 4ebd 52ae 8d3d c99f aa3e 5894 97be
00000040: 2a06 073f 0268 923e e566 fbbc d916 913d
00000050: 1d23 99be be99 4e3e 5ea5 96be 6ca8 b93e
00000060: 87bd 83be 1faa bcbd 0df1 613e 7ad7 cdbe
00000070: ae34 4d3e 9e4d f4bc fe14 b8be ffad a33e
0.35137773 -0.19723518 0.07845896 0.38273314 -0.101332605 0.26310351 -0.3403947 0.044485316
-0.40287814 0.20519769 -0.0070936917 -0.23232855 -0.050397143 0.069180146 0.3332503 -0.29605365
0.5274378 0.28594977 -0.030688712 0.07084436 -0.29909602 0.20175835 -0.2942304 0.36261308
-0.25730535 -0.092121355 0.2206461 -0.40203458 0.20039627 -0.029822167 -0.35953516 0.31968686
